wandb_trial/cifar_net.pth (torch, 251167 bytes, 10 tensors)

conv1.weight f4 [6, 3, 5, 5]
000000 bf 2d 53 be d6 ae ca bd b7 75 17 be 53 f2 a6 3d
       -0.2062292 -0.098966286 -0.14790998 0.081516884
000010 54 74 11 3d df 86 90 be ed ed cf 3d 19 12 b6 be
       0.03551133 -0.28227898 0.101528026 -0.35560682
000020 74 ed c7 be 84 47 df 3e f7 06 24 3e b0 1c 78 3c
       -0.3904835 0.4360925 0.16018282 0.015143558
000030 cf c1 3e be 9e f2 d8 be 8e e6 06 3f 3a 9e 15 3e
       -0.1862862 -0.42372602 0.5269555 0.1461114
000040 e7 98 70 3e b7 7b 49 3e de 17 8c be f5 72 d9 bd
       0.23495828 0.196761 -0.2736196 -0.106176294
000050 2a 27 c1 bd 80 80 eb bd ea d6 0e 3f d3 67 cf 3e
       -0.09431298 -0.11499119 0.5579668 0.405089
000060 ba 48 c8 be 52 43 a8 3d ce dd 97 3e 7d 7f 0b bd
       -0.39117986 0.08215965 0.2966141 -0.03405713
000070 50 dc c8 bc 82 48 fa 3d df a6 64 3e 01 7e e7 3e
       -0.024519116 0.12220861 0.22329281 0.4521332
000080 d1 ec 88 bc ea 4b 37 be 99 f8 bf 3e 74 cf a9 3e
       -0.016714485 -0.17900053 0.37494352 0.33166087
000090 9b 78 d2 3e cd 85 1c 3d 63 b0 e1 be 2e 56 04 3f
       0.4110764 0.03821354 -0.44079885 0.51694
0000a0 52 ff b8 3e 24 20 ce 3e b7 1e cc 3e 81 b2 92 be
       0.36132294 0.40258896 0.39867184 -0.28651813
0000b0 56 5e d6 bd c9 f0 76 3e 29 d9 85 3d b3 81 3c 3f
       -0.10467212 0.2411529 0.06535561 0.73635405
0000c0 ff 8d a9 3e e8 0c d1 be ee ef 8a be 89 9b 2e bd
       0.33116147 -0.4083016 -0.27136177 -0.0426288
0000d0 cf 10 d5 bc 10 df cd bd 19 f4 d5 bc ad 57 ca bd
       -0.026008992 -0.100523114 -0.026117371 -0.09880004
0000e0 ca 0b fe 3d e7 4f 49 be f6 c4 c0 be 6f a1 1e 3e
       0.12404592 -0.19659387 -0.3765027 0.1549127
0000f0 13 85 44 3d 53 d0 e4 bc 2b 07 b4 be 71 bc 1e bf
       0.047978472 -0.027931368 -0.3516172 -0.6200629
000100 04 76 92 3e 55 65 cc bd c6 9f e3 3d db 1b e8 3d
       0.28605664 -0.09980265 0.11114459 0.11333438
000110 4f b1 9f be 2a a9 40 be 78 af ad be 5f f5 9d be
       -0.31189963 -0.18814531 -0.33922935 -0.30851266
000120 7f 21 80 3e 92 ec ae 3d ab e1 15 bf 3b dc 30 be
       0.25025555 0.08541216 -0.58547467 -0.17271511
000130 5f 08 60 be 27 05 17 be 77 c6 96 bd cc c9 38 be
       -0.21878193 -0.14748059 -0.07362073 -0.1804573
000140 ee 17 9e be d9 4d 49 be 6f 47 db bd 23 6f aa bd
       -0.30877632 -0.19658603 -0.10706984 -0.08321979
000150 34 1b 69 be 0f 92 60 3d 45 49 02 be f0 a3 92 3d
       -0.22764283 0.054826792 -0.12723263 0.07160175
000160 0f 11 c7 3d d1 1b a7 3d a7 e5 78 be 58 0a 0e be
       0.097200505 0.081596024 -0.24306355 -0.13871133
000170 d6 d0 d9 be 66 26 93 be 27 2a 96 be 30 32 94 be
       -0.42542142 -0.28740233 -0.29329035 -0.2894454
000180 89 31 fb be e7 46 16 bf ee 6c 04 bf e8 9e dc be
       -0.4906123 -0.5870194 -0.51728714 -0.43089986
000190 4f 5a 15 be 2b 77 7c 3c a1 30 6b bd 63 a4 7d 3c
       -0.14585231 0.015409271 -0.057419423 0.015481087
0001a0 f1 b7 ee 3d 6a cf 1c 3e a5 0b cb 3d 8a b9 f1 3d
       0.11656178 0.15313497 0.099143304 0.11802967
0001b0 07 ea 51 bd 93 92 1b 3e 0f c9 8b 3e fa ef 6b 3e
       -0.051248576 0.15192632 0.27301833 0.23040763
0001c0 2e 4a e0 3e 30 a5 e3 3e 88 e9 b1 3e 3f 65 b3 3d
       0.43806595 0.44461966 0.34748483 0.087595455
0001d0 1f 02 97 3e 98 a2 7a 3e 2e 51 57 3e fc 1d 76 3c
       0.29493806 0.24476087 0.21027061 0.015021797
0001e0 6d fc 14 be 8d 6f 59 be 69 83 1f be 4a 7f 49 be
       -0.14549418 -0.2123396 -0.15577473 -0.19677463
0001f0 8f df 86 be a0 5a a0 bd 8d e4 4e be 37 34 d0 3c
       -0.26342437 -0.07829785 -0.20204373 0.025415523
000200 b1 39 f6 ba 25 d8 3d 3e 1f 97 6b 3b 9d 84 06 3d
       -0.0018785504 0.18539484 0.003594823 0.032841314
000210 f4 66 6d 3b 5a cb eb bc 0a 41 f8 3d 2f 10 7b 3e
       0.0036224695 -0.028783489 0.1212178 0.24517892
000220 69 be c0 3e d7 89 c1 3e b1 c7 d9 3e 72 bf 0f 3f
       0.3764527 0.37800476 0.42535165 0.561515
000230 e0 6d 7a 3e 6d 6e 18 3e f1 3a 3c 3e d9 01 9c 3e
       0.24455976 0.14885874 0.1838186 0.3047016
000240 e0 a2 02 3e 83 c1 d9 3d 3c e1 1b 3e d6 d5 05 3e
       0.12757444 0.106326126 0.15222639 0.13069853
000250 86 62 ef 3c 1c ef 31 3e 29 ae cd bd dc d7 aa 3e
       0.029221784 0.17376369 -0.10042984 0.33367813
000260 74 41 fb 3e 58 42 e6 3e 82 6b e2 3c 1c 6f cb bd
       0.49073374 0.4497249 0.027639154 -0.09933302
000270 2a d4 a3 bd 97 b1 e7 3e ff 4a 03 3f e1 91 9f 3d
       -0.079994515 0.45252678 0.5128631 0.07791496
000280 ce 74 aa bd be fb 29 bf 8c 45 41 bf a8 13 de be
       -0.0832306 -0.66399753 -0.75496745 -0.43374372
000290 94 7d 83 bd 14 d8 6e be 67 ea bf be 1c dd 22 bf
       -0.064204365 -0.23324615 -0.37483522 -0.63618636
0002a0 9f c0 e3 be ab 2b 1f be 30 af 5d 3e 00 d7 ee 3e
       -0.44482896 -0.15544002 0.2164886 0.46648407
0002b0 41 3b 1b 3f 25 bf b4 3e bc f6 00 3e c1 ae ac be
       0.6063729 0.35302082 0.12594122 -0.33727077
0002c0 81 c1 13 3e 2b b3 b0 3e 4e b8 11 3e f9 19 93 be
       0.14429285 0.34511694 0.14230463 -0.28730753
0002d0 4f af 07 be 08 88 a6 bd 5c 00 88 3e a7 0c ae 3e
       -0.13250469 -0.08131415 0.26562774 0.33994028
0002e0 22 1a 29 3e 48 bf 48 3d bb ec 07 bf 8e 31 15 bf
       0.16513875 0.049010545 -0.530956 -0.5827874
0002f0 5b 35 db be 29 96 48 be 4f 83 93 3d ea 79 6a be
       -0.42814144 -0.19588532 0.072027795 -0.22898069
000300 57 c2 aa be 38 26 c3 be 68 1e 8a be ab 5d 93 3e
       -0.33351395 -0.38115096 -0.26976323 0.287824
000310 aa c2 14 3f 89 db 0e 3f b2 7b fa 3e f9 6c b0 3d
       0.58109534 0.55803734 0.48922497 0.08614535
000320 d9 35 b6 be dd ed 01 3e f9 6a dd 3e 4c 4c 29 3e
       -0.35587958 0.12688394 0.43245676 0.16533011
000330 63 99 2e be a1 73 97 3d e6 54 af 3c 13 b5 c8 3e
       -0.170507 0.07395101 0.021402787 0.3920065
000340 59 5f d8 3e f5 f3 46 3e cc 6c 31 3e f2 a0 85 be
       0.42260244 0.19429 0.17326659 -0.26099354
000350 19 c1 05 bf f3 28 8a be 6e 04 97 3d b1 a9 13 bc
       -0.5224777 -0.26984367 0.07373892 -0.009012626
000360 a9 95 e3 3b 2e 75 bb be 17 d4 cc be af a4 25 be
       0.006945331 -0.36612839 -0.40005562 -0.16176103
000370 e0 c3 24 3e ea c5 d7 3e 4f 36 00 3f 4e 45 9d 3e
       0.16090345 0.42143184 0.5008287 0.30716938
000380 90 98 01 3d 40 90 4c be 98 55 87 be 95 30 cf bd
       0.031639636 -0.19976902 -0.2643249 -0.10116688
000390 69 0d fa 3b 1e 9b b4 3c ad 0d 00 be 88 e1 f8 3c
       0.007630993 0.022046622 -0.12505217 0.03038098
0003a0 4d ad 3b bd f6 4b 56 3c 2b c4 a2 bd 92 0e 20 bd
       -0.04581957 0.013079634 -0.07947572 -0.039076395
0003b0 f5 f1 09 3e f1 3b 5b 3d 2c 52 52 3d 04 97 01 3c
       0.13471206 0.05352396 0.051347896 0.00790954
0003c0 5d fb 1a 3d 4a c2 5c 3e f7 a7 3a 3e ae 6f 90 3e
       0.037837375 0.2155849 0.18228136 0.28210205
0003d0 cb dc bf 3d b4 2b ec 3d fe 5c 22 3e 30 2a 14 3e
       0.09368285 0.11531773 0.15855786 0.14469218
0003e0 ea a1 6e 3e 4f 51 06 3e 4e b1 24 be dd 85 85 bd
       0.23303953 0.13116954 -0.16083261 -0.06519673
0003f0 f8 ad ee bd 87 4d 83 bd 76 f3 11 bc 0c 41 ca bd
       -0.11654276 -0.064112715 -0.008908143 -0.09875688

conv1.bias f4 [6]
000000 b9 e4 4e be f5 9d 61 be bb 46 28 bf 3a 71 d7 bd
       -0.20204438 -0.22032912 -0.65732926 -0.10519643
000010 0f 2f f4 be cd 84 82 bf
       -0.47692153 -1.0196778

conv2.weight f4 [16, 6, 5, 5]
000000 ce bc 9a 3b de 32 96 ba 06 36 27 bd 2c e6 bd bd
       0.0047222143 -0.0011459251 -0.040823005 -0.092724174
000010 76 0a 1d 3e 01 49 68 bd 5a 2d 3a 3d 20 c5 00 bd
       0.15336022 -0.056710247 0.045453407 -0.031437993
000020 11 6a 78 3d 86 d1 13 3c 2d 30 ed bd f5 2a 1a 3e
       0.060648028 0.009022122 -0.115814544 0.1505545
000030 6c 33 f2 bd ff 4a 87 bc d8 0d 25 bd 98 07 4b be
       -0.11826214 -0.016515253 -0.040296406 -0.19827116
000040 b6 bd 30 3e b7 9d e7 bd c2 6b 59 3b c9 c7 13 be
       0.17259869 -0.113093786 0.00331758 -0.1443168
000050 03 23 ea b9 31 68 24 3e 17 17 ae bd a5 c0 14 bd
       -0.00044658044 0.16055371 -0.08500498 -0.036316533
000060 33 30 73 bd 16 0b 37 3d 00 e8 26 3e 2d a6 28 3e
       -0.05937214 0.044688307 0.16299438 0.16469641
000070 00 44 d3 3d 5b 00 d8 3d b9 49 d8 bc 34 ae 66 3d
       0.10315704 0.10546943 -0.026402341 0.056318477
000080 22 28 04 bd c0 de cb 3d 10 64 f6 3c 14 c6 9f 3d
       -0.032264836 0.099545956 0.03007701 0.07801452
000090 d9 cd b2 3c f8 58 b6 3c c8 36 8f 3d 8a 4e 87 3d
       0.021826671 0.02225922 0.069928706 0.06606777
0000a0 0d 9b 38 be f1 d4 45 bd 92 12 92 bc 29 6d a5 bd
       -0.18027897 -0.04829878 -0.01783112 -0.08077461
0000b0 9b 85 51 be 20 5a af bc 5c d6 97 bd bf 9d 27 3d
       -0.20461123 -0.02140528 -0.07413933 0.040921923
0000c0 09 8e 17 bd 43 87 87 bd 4c 36 05 3d 31 52 c2 3c
       -0.03700069 -0.06617596 0.032522485 0.023720833
0000d0 67 e3 b2 bd a9 df 04 3e 0e 61 1c 3e e8 48 90 3c
       -0.0873478 0.12975945 0.15271398 0.01761289
0000e0 98 39 23 bd 8f 54 06 be 28 06 bc 3b fb db 11 bb
       -0.039849848 -0.13118194 0.0057380386 -0.0022256363
0000f0 58 dd 34 bd 3c dd 02 be 50 86 4e be ec 09 23 bd
       -0.044156402 -0.12779707 -0.20168424 -0.039804384
000100 13 99 8e bd e3 77 72 3e 04 6c ec bb e1 ad 65 3d
       -0.0696279 0.23678546 -0.007215025 0.056074027
000110 c9 aa 7e 3e 73 d9 47 3e 78 04 8d bd 8c d6 5c be
       0.24869837 0.19516544 -0.06885618 -0.21566218
000120 29 68 0a be 77 75 b5 ba 4b e4 0b be ab db f3 3c
       -0.13516296 -0.0013844211 -0.13661306 0.029767832
000130 f0 5c 6f 3d ab 29 de bd 11 42 21 3d 0b fb aa bd
       0.05843824 -0.10847791 0.039369646 -0.08348664
000140 0e e5 cf ba fa 1e 0a 3e 16 39 4d bd 37 88 1c 3d
       -0.001586111 0.13488379 -0.05010327 0.038215842
000150 6a 12 e3 bd a1 b8 a2 bd 63 01 c3 3d 7b c9 bd bb
       -0.110874966 -0.079453714 0.09521749 -0.0057918406
000160 8c 38 b8 3d 15 9a 32 be 4b a1 ac bd 0f a3 c3 3c
       0.089951605 -0.1744159 -0.08429202 0.023881463
000170 e7 08 77 3b fb 40 50 bd 39 96 fb bd 62 ea df bc
       0.0037694515 -0.05084322 -0.12284512 -0.027333442
000180 e7 47 75 bd 9f 62 9d bd 20 b5 36 bd 79 ae de bd
       -0.059883025 -0.07684826 -0.044606328 -0.10873122
000190 68 d4 d5 3d b0 7d 43 be 99 c9 f5 3c 3c dd 60 3e
       0.10440904 -0.19090915 0.030003356 0.21959394
0001a0 ea f2 18 be b1 ea f7 3d 94 b6 a4 be 6d 17 e3 3d
       -0.14936414 0.12105311 -0.32170546 0.110884525
0001b0 08 e2 2f 3e 63 56 3d be 5d 04 1d 3e 80 57 7d be
       0.17176068 -0.18489985 0.15333696 -0.2474041
0001c0 87 f2 42 3e 0b e4 9a 3d 8b 2c 63 be d5 2f 84 3d
       0.1903783 0.07563027 -0.2218496 0.06454436
0001d0 c3 26 9c be ca 48 8d 3e bc fc 03 bd 18 8c 0c be
       -0.30498323 0.27594596 -0.03222345 -0.13725317
0001e0 9a bb 51 bd 55 4c 88 be d1 15 83 3e 16 29 e6 bd
       -0.0512043 -0.26620737 0.25602582 -0.11238305
0001f0 ff c3 13 be 84 e5 57 bd 2c d6 82 bd 2c 71 9e bc
       -0.14430235 -0.052709118 -0.06388506 -0.019341074
000200 a0 86 03 bd f6 10 f0 bd c9 1c 83 bd e5 1d 8d bd
       -0.03211081 -0.11721985 -0.06401975 -0.068904676
000210 9d 2c a3 bb e4 20 c6 bd 3d 18 9d bd 5a cc 9f 3d
       -0.0049796836 -0.09674242 -0.07670639 0.07802649
000220 f6 05 ec 3d 1d e8 3c 3d b7 29 70 bd 55 4a ef 3c
       0.115245745 0.046119798 -0.058633532 0.029210249
000230 4a ab 97 bc a5 b5 23 3d 6d 6e fc 3c d2 21 c0 3d
       -0.018514294 0.03996815 0.030814374 0.09381451
000240 86 5c 15 bd ab 62 9a bd ef 9f d2 bc 83 bd a0 bd
       -0.03646519 -0.07538351 -0.025711028 -0.078486465
000250 56 ee bc 3d de 93 9d 3d e0 c8 9c bd 58 df 63 bd
       0.092251465 0.07694219 -0.07655501 -0.05563292
000260 de 35 aa bd 5a ff 53 be ad d9 8a be ea 39 05 bd
       -0.083110556 -0.20702878 -0.27119198 -0.032525934
000270 6e 31 33 bc af 4f de bd 73 3b 1b be d8 a3 67 be
       -0.010937078 -0.10855042 -0.15159397 -0.22621095
000280 6a 99 98 3c 29 12 bb bd f7 b6 3f be 6b ad 8a be
       0.018627841 -0.09134323 -0.1872214 -0.27085432
000290 ba c3 b9 be 6c 94 31 3c 16 f0 28 bd 3f e6 c4 bd
       -0.3628214 0.010838609 -0.04124459 -0.096142285
0002a0 86 b6 37 be 15 3d 69 be 26 d2 b5 bc 71 6a d7 3c
       -0.17940721 -0.22777207 -0.022194933 0.026295872
0002b0 4c b7 93 bd bd 3f 1c be 4b ab 05 bd 61 eb db bd
       -0.072126955 -0.15258689 -0.03263406 -0.10738254
0002c0 8e da c8 bc e6 d7 df 3b 9d bc 8c bc 40 f0 4e 3e
       -0.024518277 0.006831157 -0.017179782 0.20208836
0002d0 43 c2 a7 bd b6 c6 ba bc f4 af 8d 3c 39 72 a3 b8
       -0.08191349 -0.02279983 0.017295815 -7.793721e-05
0002e0 4a 62 5b 3d fd 21 84 be 2e 78 3f be 9e 68 cf bd
       0.053560533 -0.2580718 -0.18698189 -0.10127376
0002f0 9f 9c 13 3e 3e 95 7b 3e 61 5c 9f bd a5 a6 16 3e
       0.14415215 0.2456865 -0.07781292 0.14712007
000300 c8 0b cf 3d 1f f8 12 3e 07 4e 3c 3e f8 c9 ea bd
       0.10109669 0.14352463 0.1838914 -0.11464304
000310 3f 95 22 3d c4 ec 84 3e e4 72 8e 3e 49 0d 7c 3e
       0.039693113 0.25961888 0.2782203 0.24614443
000320 e7 ea 21 3c 0a b1 c6 bd d2 5b 26 be b7 c8 2a bd
       0.009882665 -0.09701736 -0.16245964 -0.041695323
000330 de 6c 83 be da 3f 3e bd 30 e1 bf 3c 8c 2a af bd
       -0.25668997 -0.046447612 0.023422807 -0.08553037
000340 f8 1f 1f be bf bc 70 be 5b 46 27 bd 3f 1f 16 3e
       -0.15539539 -0.23509501 -0.04083858 0.14660357
000350 f9 8e fa 3c 68 b2 d2 bd 0d 3b 11 bd e0 fe e7 bd
       0.030585753 -0.102879345 -0.035456706 -0.113279104
000360 09 e6 e5 3d e0 cf f2 3d c8 c1 f7 3d e4 8a f7 3d
       0.11225516 0.11856055 0.12097508 0.12087038
000370 6b d8 03 be d9 f1 a0 bd 04 71 19 be 84 e2 4a be
       -0.12875526 -0.07858629 -0.14984518 -0.19812971
000380 cc 29 2a be fe 1f 60 3d 3a 9b 04 3e b8 26 22 3e
       -0.16617507 0.05471801 0.12949839 0.15835083
000390 bc 26 d0 3d 04 6e d0 3d 19 ba b9 bd d7 3f 42 bd
       0.10163638 0.10177234 -0.090686984 -0.047424164
0003a0 be da d3 bd a5 5e 5d be 82 43 06 be 35 f4 23 3c
       -0.10344456 -0.21618135 -0.1311169 0.010006954
0003b0 73 e2 46 3c 2f e8 5d be 27 5f 4d be f1 10 df bc
       0.012138951 -0.21670602 -0.20055829 -0.027229758
0003c0 2c 6c ef 3d aa 7d 14 bc 46 96 56 3c bf 36 f3 bd
       0.11690554 -0.009063164 0.013097351 -0.11875676
0003d0 7d 5b 81 3a 7a ae f8 bc a2 f7 14 3d 41 22 95 3d
       0.0009869185 -0.030356634 0.036368974 0.07281924
0003e0 35 0c 7a 3e 66 2b 58 3e 21 76 3f be 4b da 22 be
       0.24418719 0.21110305 -0.18697406 -0.15903585
0003f0 f8 60 f8 bd f5 ff 14 be e0 58 cd bb ae 1a 34 bd
       -0.1212787 -0.14550765 -0.0062666982 -0.043970756

conv2.bias f4 [16]
000000 ee dc 42 be cc 45 e4 3e b3 81 2b 3f 64 55 cf 3f
       -0.1902959 0.445845 0.6699478 1.6197934
000010 87 b8 0e bf 60 a2 4c bc 84 c2 51 3f df ce be bd
       -0.55750316 -0.012489885 0.8193743 -0.09316801
000020 9a 33 e0 be 96 a0 a8 3e cc a5 39 bf fa 15 d5 3e
       -0.4378937 0.32935017 -0.7251861 0.4161833
000030 93 df ba 3d 33 fa 89 3e 34 f7 ff be cd 8b 9e 3c
       0.09124675 0.269487 -0.4999329 0.019353772

fc1.weight f4 [120, 400]
000000 be 78 28 bd 41 51 db bc 8a 27 9a bc 7c 7c 85 3c
       -0.041130774 -0.026772143 -0.018817682 0.01629471
000010 03 8b 1c bd a8 7b b8 bb 9c b8 4f bd 13 7e e8 bc
       -0.03821851 -0.0056299753 -0.050713167 -0.02838043
000020 5a ca 49 bd f0 69 31 bd 83 ae 9e bd e2 9b 11 bd
       -0.049265243 -0.04331392 -0.07748129 -0.035549052
000030 21 f4 e7 bc 7a 3f 22 bb 75 83 15 bc c5 fe 95 bd
       -0.028314652 -0.0024757073 -0.00912558 -0.07323984
000040 38 45 00 bd a6 57 a6 bc f5 6c 80 bd 64 56 a7 bd
       -0.031316012 -0.020305466 -0.06270782 -0.081707746
000050 0f d6 a5 bc 42 a6 63 bd c9 4b 55 bc c0 33 94 bc
       -0.020243673 -0.055578478 -0.013018557 -0.018091083
000060 35 2e db bc b9 a7 0a 3d 48 70 07 3d 71 31 6d bc
       -0.026755432 0.03385136 0.033066064 -0.01447712
000070 cd 32 67 3d 7a 30 b4 3d 10 72 82 bb 96 b6 cb 3b
       0.05644493 0.08798309 -0.0039808825 0.0062168343
000080 a0 17 b1 bb 29 ce 36 3d 09 a7 b4 3d f1 00 c4 ba
       -0.0054044276 0.044630203 0.08820922 -0.0014953894
000090 a3 89 59 bc 73 2b b5 bc 88 b8 85 3d bf 54 50 3d
       -0.013277444 -0.022115445 0.06529337 0.05086207
0000a0 7a 7f 2a 3d 65 35 5b 3d 54 3c a0 bd c9 49 c5 bc
       0.041625477 0.053517718 -0.07824007 -0.024083035
0000b0 41 eb 95 39 df 94 89 3d 73 11 bf bd ee 8c 97 bd
       0.00028594772 0.06717848 -0.093295 -0.07399927
0000c0 f3 af f1 bd f5 92 57 3c 08 7c fd bb 63 ff 8d bd
       -0.11801138 0.013157596 -0.007735733 -0.06933477
0000d0 75 bd 7b 3d cd f9 15 3e b5 99 d5 3b 35 8d 1c bd
       0.061459977 0.14646073 0.0065185674 -0.038220603
0000e0 cc 54 d5 3c bf 49 c8 3d c3 a9 44 3e 5d 05 08 3c
       0.02604141 0.09779691 0.19205384 0.00830206
0000f0 de a2 9e bd 9e b0 76 3c bc ef 9e 3d ae af 09 3d
       -0.07745908 0.015056757 0.077605695 0.033614807
000100 d7 4a 83 3d ce 4d bf bd 04 75 a0 3c 47 29 a1 bd
       0.06410759 -0.09341012 0.019587047 -0.07869201
000110 01 c7 02 bd 63 26 e7 bb cf 91 90 bd ea bb cc bd
       -0.031928066 -0.0070541366 -0.07059061 -0.09996779
000120 db d2 98 bd 93 b0 1f bd dc ff 5f bd a2 57 14 3d
       -0.074620925 -0.038986754 -0.054687366 0.036216386
000130 c3 49 31 3d 3f 5c f0 ba 79 db 96 ba 92 85 20 bd
       0.043283235 -0.0018338038 -0.00115095 -0.039189883
000140 97 81 db 3d 1e 81 ad 3d 4a 24 54 bd 8b 38 90 bd
       0.10718077 0.08471893 -0.05179242 -0.07042035
000150 59 49 77 3d 64 0d f9 3d 91 76 a8 bb 1a 33 7d bc
       0.060372684 0.12160757 -0.0051410873 -0.015454078
000160 54 e3 f6 3b 1c 12 1a 3d 72 90 9f 3d 28 89 90 3d
       0.007534424 0.037614927 0.07791223 0.070574105
000170 0c 9e 0f bb 84 28 14 3d ce 6e 88 bc 2a 40 d2 bd
       -0.0021914272 0.03617145 -0.016654398 -0.102661446
000180 4b 14 8e 3c 68 ea 78 bd 8e fe df bc 90 fd cb bc
       0.01734366 -0.060770422 -0.02734306 -0.024901181
000190 63 2c 0a be 1f d6 0a bd da 6a fc bc be c3 bf bd
       -0.13493495 -0.033895608 -0.03081267 -0.09363507
0001a0 61 fe 8e bd 50 19 f6 bd ec 7c 9e bd f1 7c 5d 3c
       -0.06982113 -0.12016547 -0.07738671 0.013518558
0001b0 fb 76 0b 3d 28 33 c3 bd 66 ce 39 be a8 17 88 bd
       0.034049015 -0.09531242 -0.18145141 -0.06645137
0001c0 e9 50 8b bc 23 cb 87 3d 6d ea 72 bd 9d ff ec bd
       -0.017006354 0.06630542 -0.059305597 -0.11572192
0001d0 70 d2 b3 bd 4b c7 fa bd 7b 9f 49 bd 0b 97 cb 3c
       -0.08780372 -0.12245043 -0.049224358 0.024852296
0001e0 7b 46 c4 bd e0 34 c1 bd 04 8a 18 be ec 0e cf bd
       -0.095837556 -0.09433913 -0.14896399 -0.10110268
0001f0 a8 13 07 bd e3 ab 54 bd a2 71 97 bd e8 ee 59 bd
       -0.03297773 -0.051921736 -0.073947206 -0.053206354
000200 94 7c 78 3d 39 81 d5 bc dd e2 28 bb bf 5e bc bd
       0.060665682 -0.026062595 -0.0025769987 -0.09197759
000210 cb 59 3e bd 7d 3b a5 3d a0 5e cb 3d bf c5 97 3d
       -0.046472352 0.08067987 0.09930158 0.07410764
000220 fd 1c 2a 3d 75 85 1a bd 1b ce 90 3d bf aa cb 3d
       0.04153155 -0.03772493 0.070705615 0.099446766
000230 07 4c a0 3d a7 f2 9b 3d 0f b4 5d 3c a0 40 d4 bc
       0.07827001 0.07614642 0.013531699 -0.025909722
000240 fa 91 bd 3c b5 c3 56 3d 67 11 38 3d 8e cf c0 bd
       0.023140896 0.052432735 0.04493847 -0.09414588
000250 e2 2f 08 bd 44 23 15 be cd 12 2d bc 94 72 bc 3c
       -0.03324879 -0.14564234 -0.0105635645 0.023003854
000260 42 05 3f 3b cd 67 67 3d 45 f0 e4 3b f7 55 97 bd
       0.002914742 0.056495477 0.00698665 -0.07389443
000270 5a 9e 45 3d 4d 57 4d 3c bc fe 63 bc 64 2f e5 bc
       0.04824672 0.012533021 -0.013915714 -0.0279767
000280 ac 80 15 bd 1b df f1 bc ee 09 25 bc 23 f2 6b 3d
       -0.036499664 -0.02952533 -0.010073168 0.057603966
000290 99 23 04 bd 58 a7 7f bd 83 29 86 3d cd 67 90 3d
       -0.03226051 -0.06241545 0.065508865 0.070510484
0002a0 05 3c 77 3d 51 ec 06 bc 19 56 ad bb e2 ff cd bc
       0.060359973 -0.008235053 -0.0052898047 -0.025146428
0002b0 4f c4 5d 3c c0 15 c5 3d 0d 67 1e 3d c7 6a 3f 3d
       0.013535573 0.09623289 0.038672496 0.04673269
0002c0 c7 59 0a bd 3b aa 69 bc 5d d2 4b ba 89 ac 84 bd
       -0.033777025 -0.0142617775 -0.0007775182 -0.06478221
0002d0 2e 6a 07 bd 88 ec b0 bb e8 13 08 3c 35 29 62 bd
       -0.033060245 -0.0053992905 0.008305527 -0.05521508
0002e0 7d 3f 2d bd a0 82 8e ba 82 e2 4c bd 23 59 dd bc
       -0.042296875 -0.001087267 -0.050020702 -0.027020043
0002f0 d4 d7 9e bc eb 35 2d bd ea 6e 1b 3d 77 fb aa bd
       -0.019390024 -0.04228775 0.037947573 -0.08348744
000300 ee c7 68 bd 50 53 c9 bc 3b 57 45 bd fb 5a 3a bc
       -0.056831293 -0.02457586 -0.048178893 -0.0113742305
000310 7d 9f b9 3c 91 59 e5 bc 1d f3 3c 3d 31 8e d9 3d
       0.022659058 -0.02799681 0.04613029 0.10622824
000320 4f 4d 05 bd e7 74 d1 bd 58 be 36 be 6a a1 b1 bd
       -0.03254443 -0.102273755 -0.17846048 -0.086733654
000330 3b c6 eb 3b 67 69 fe bd e8 27 14 be 4e 5b 45 be
       0.007195262 -0.12422448 -0.14468348 -0.19273111
000340 ff 14 2b be a3 3e fd bd 2c 05 a5 bd dd 78 a8 bc
       -0.16707228 -0.12365463 -0.08057627 -0.020565445
000350 96 16 e4 bd 26 2a 22 be fd 03 d7 bd 23 72 92 3c
       -0.111371204 -0.15836391 -0.104988076 0.01787669
000360 f8 6d 68 bd 90 6e 58 3d d8 29 1b 3d b6 57 f2 3d
       -0.0567455 0.052839816 0.037881702 0.11833136
000370 7a 48 62 3d f3 6d 9c 3d a4 b7 d4 3d 58 dc 08 3e
       0.0552449 0.07638159 0.10386589 0.13365304
000380 60 bb 14 3e 60 e8 8f bd 49 2c 91 bd f3 44 14 be
       0.14524603 -0.07026744 -0.07088525 -0.14479427
000390 a1 d3 71 bd c1 45 16 bd 4a 7f 06 bd f6 26 31 bc
       -0.059039716 -0.036687616 -0.032836236 -0.010812512
0003a0 ca fe 86 bc d4 aa 08 bd 77 07 d8 bd 65 f6 67 bd
       -0.016478915 -0.03336604 -0.10548299 -0.056631465
0003b0 b9 ee b5 bd da 74 2f bd d7 89 2d bd 13 94 2d be
       -0.08883423 -0.042836048 -0.042367782 -0.16951017
0003c0 24 f6 ce bb 46 60 f8 3b 42 48 4d bd 2c 11 c2 bd
       -0.0063159633 0.007579836 -0.05011774 -0.094759315
0003d0 86 a9 b9 bb e1 0d ad 3d ee f3 12 3c 06 25 39 3c
       -0.0056659607 0.08449913 0.00896929 0.011300331
0003e0 d5 bc 5f 3d 1a c2 69 3d 8f a1 93 bc e6 de 0c be
       0.054623444 0.057069875 -0.018021373 -0.13756904
0003f0 f2 e4 67 bd a7 9f ca bd ca 1c c4 3b 9b 8a 38 bd
       -0.056614824 -0.098937325 0.0059848772 -0.04505406

fc1.bias f4 [120]
000000 ce 1c 04 3e 03 80 2f 3d a6 0f a1 3c 0e 35 e7 bc
       0.12901613 0.04284669 0.019660782 -0.02822354
000010 5d a5 f6 bd 3d a7 97 bc f1 82 47 bb 4c 9c 0b 3c
       -0.12043259 -0.018512363 -0.0030443037 0.008521151
000020 d3 9c ca 3d 01 2e d1 bd 8b b4 3d 3d ce d0 48 bd
       0.09893193 -0.10213853 0.046314757 -0.049027257
000030 df ff d2 3c 6e 69 97 3d a1 6c 70 bc 12 13 ad bc
       0.025756774 0.07393156 -0.014674337 -0.021127257
000040 17 ef 0f bb 11 3b 3c bd 89 c5 95 bd 4d ce 18 bd
       -0.0021962577 -0.045954768 -0.073130675 -0.03730612
000050 48 5c c1 bd 80 34 c8 bc 5e 77 35 bd cb 6d d7 3d
       -0.094414294 -0.024439096 -0.04430329 0.10518988
000060 f2 e8 72 bc 2c 37 c7 ba 77 a5 88 bd 43 02 fd 3b
       -0.014826046 -0.0015198938 -0.06672185 0.007721217
000070 28 6b 2a 39 aa a5 a0 bc b0 53 12 3e fe b2 c4 bd
       0.00016252382 -0.019610245 0.14289737 -0.096044526
000080 95 5d 95 3d 66 69 c3 3d 2d 57 31 bd 90 b4 05 3e
       0.0729324 0.095415875 -0.043296028 0.1305716
000090 27 ae b7 3d 48 2b e6 3a 2b 3c 4d 3c 11 58 ae 3d
       0.08968764 0.0017560506 0.012526552 0.08512891
0000a0 4a 7f 87 bc fe db 9b 3c 69 ff 4a 3e 30 62 3a bd
       -0.016540188 0.019025799 0.19823994 -0.045503795
0000b0 43 5d 02 be 36 bb 39 3e d4 2a 09 bd f2 7a 92 bd
       -0.12730889 0.18137822 -0.03348811 -0.07152356
0000c0 a7 2d 10 bd f1 3c cf 3e d0 4a 84 3e 99 b7 1f 3e
       -0.035199787 0.40476182 0.25838327 0.1559738
0000d0 4f e4 bc bc 52 b2 54 bd fe a5 71 bd cd 5d 92 3c
       -0.023058085 -0.051927872 -0.058996193 0.017866993
0000e0 29 93 d1 bc c6 ed dc bc 68 64 da bd ff 95 23 3e
       -0.025582867 -0.026968848 -0.10663682 0.15975188
0000f0 18 2d c0 3c 53 c3 75 3e ba 23 c5 3e 2c f4 12 be
       0.023459002 0.24000292 0.3850382 -0.14350957
000100 2b ea 9a 3e bf 33 7b 3d df 3d 32 3e a5 58 36 bd
       0.3025678 0.061328646 0.17406414 -0.04451813
000110 55 b1 3e bd ca 0c 2a bd fa 96 2e 3e 6d fb ee bd
       -0.046555836 -0.041516103 0.1704978 -0.116690494
000120 ab 4b 10 3a 5a c7 b9 3d a9 8b e0 3d 96 ae b5 3c
       0.00055044395 0.090712264 0.10964138 0.022177976
000130 d8 15 69 be 39 82 1c 3d 72 13 30 3b dc f2 2d bc
       -0.22762239 0.038210128 0.002686706 -0.010616984
000140 93 5d b2 3b 36 cc 30 3e 14 2b 56 bd 64 33 14 3e
       0.005443284 0.172654 -0.052287176 0.14472729
000150 da cf 25 3e 3c 7e 4e 3c 94 b1 6c bd fc cc 42 bd
       0.1619257 0.012603339 -0.05778654 -0.04755877
000160 73 20 e3 3c 1b c5 58 3d 4f f7 36 bc dc 3e 87 bd
       0.027725434 0.05292235 -0.011167361 -0.06603786
000170 dc 84 90 3d 9f 4e 11 3c 21 8f 87 3e d6 15 65 bd
       0.07056591 0.008868842 0.26476386 -0.055929027
000180 0c 30 80 3d 27 c7 d0 bb c1 a9 15 bd 73 02 01 3c
       0.06259164 -0.006371397 -0.036538843 0.007874119
000190 59 96 78 bc 3f 1b 85 bd 89 50 23 bd 70 20 42 3e
       -0.015172564 -0.064993374 -0.039871726 0.18957686
0001a0 45 fa 06 3e 09 1d e3 3d bb 40 ac bc 84 2a fa bd
       0.13181408 0.110895224 -0.02102696 -0.122151405
0001b0 41 8f 12 3e 35 ab 61 3d 70 8f 0b be 4d f2 33 bb
       0.1431246 0.055094916 -0.13628936 -0.0027457655
0001c0 7b e3 37 3d f0 b2 09 3e bc 69 16 be a3 9e b6 3d
       0.044894677 0.13447165 -0.14688772 0.08916976
0001d0 b9 d8 06 3e 03 43 9d bd d9 18 88 bb a4 72 58 3e
       0.1316861 -0.07678797 -0.0041533527 0.21137482

fc2.weight f4 [84, 120]
000000 2e 6e 11 be 4d db 1f bb 54 50 cb bb 4e f6 d3 bd
       -0.14202186 -0.0024392188 -0.006204644 -0.10349713
000010 50 90 94 bd f8 fc ae 3d 52 cf 91 3c cf 8d 93 bd
       -0.07254088 0.08544344 0.017799053 -0.07204782
000020 bc 44 ac bd 98 27 a0 3d d9 9d b5 bd 48 24 b0 3c
       -0.084115475 0.07820052 -0.08867998 0.021501675
000030 ca b9 4a bd 3e fa 4d bd c4 59 ee 3d 98 2b 93 3d
       -0.04949359 -0.050287478 0.11638215 0.07186049
000040 a8 25 31 bc ea dd d9 bc 6d 6b 65 bd a6 33 7d bd
       -0.010812201 -0.026595075 -0.056010652 -0.061816834
000050 18 ab b5 bc 8c 79 27 3c a8 1d 31 3c 2d c4 89 bc
       -0.02217631 0.01022185 0.010810293 -0.016817177
000060 75 74 d5 3c a8 76 74 bd 5a 08 3f 3d f7 04 9e bd
       0.026056508 -0.059683472 0.046638824 -0.07715791
000070 7c 73 b8 bc 83 32 d5 3d 4c 65 d9 bd 35 9d bd 3b
       -0.022516005 0.10410025 -0.10615024 0.005786563
000080 d8 45 1b be 67 d2 95 3c 1b fb f0 bb a5 35 03 3e
       -0.15163362 0.018288804 -0.007354153 0.12813433
000090 8d e0 06 be f0 36 0e 3d 6e 6f f6 3d 19 b3 19 3e
       -0.13171597 0.03472036 0.12032972 0.15009727
0000a0 01 64 da bd 4e 6f 93 bd ca 83 84 bd 8b 14 71 3e
       -0.106636055 -0.07198964 -0.06470449 0.23542993
0000b0 12 16 43 3e ed 33 0c bd 37 41 dd bd b4 a4 87 3c
       0.19051388 -0.034229208 -0.10803454 0.016558029
0000c0 0d 1b 0a bd 26 c3 f9 bd 15 b8 74 bd 65 9c 49 bb
       -0.033717204 -0.12195425 -0.059745867 -0.0030763384
0000d0 fe 35 9c bc b6 40 7c bd 28 1c 91 3d 63 3b 51 3c
       -0.019068714 -0.06158515 0.070854485 0.012770507
0000e0 5e 8a e0 3d 44 f6 f8 3b b8 94 34 bd 12 aa ad bc
       0.109638914 0.0075977165 -0.04408714 -0.02119926
0000f0 2e 02 72 3d c7 f2 9b bd fc ac 82 be 0f 13 18 be
       0.05908411 -0.076146655 -0.25522602 -0.1485102
000100 6a 2c c8 bd 36 28 99 bd 8c 67 96 bd 63 d1 85 bd
       -0.09774096 -0.07478373 -0.07343969 -0.06534078
000110 ac 27 8f 3d f6 0e 05 bc 7c ea ef 3b f0 de 8c 3d
       0.06989989 -0.008121243 0.007321654 0.068784595
000120 a3 3f 87 bc 51 cd 7d bd c0 2b ba 3d 7a 84 86 bd
       -0.016509837 -0.061963383 0.09090376 -0.06568237
000130 3a b1 9a 3c 09 b6 7b bd 9e fe 05 bd cf 13 94 bd
       0.018883336 -0.0614529 -0.032713525 -0.07230341
000140 cf 76 13 be b3 d5 c0 3d 73 07 02 3d eb 31 07 be
       -0.1440079 0.0941576 0.031745385 -0.13202636
000150 de 36 04 bd 29 92 e3 bc 66 6a af bd 20 07 a3 bd
       -0.032278888 -0.027779656 -0.08565216 -0.07960343
000160 8b 31 08 3d 97 6a 19 3a 38 de b0 3c 80 f9 a0 3d
       0.033250373 0.000585237 0.021590337 0.07860088
000170 c9 94 4b bd c1 62 ae bd 15 7d 1c bd 9c e7 5f bd
       -0.04970244 -0.085149296 -0.038205225 -0.05466424
000180 eb 1d 08 be 38 ff a8 3d c1 f3 05 be e2 8e 30 3d
       -0.13292663 0.08251804 -0.13081266 0.043105014
000190 dc 94 25 bd 73 89 63 bd 9d fe 99 3d ea fd 2f 3d
       -0.040425166 -0.055551004 0.07519267 0.04296676
0001a0 63 c1 3c bd 78 ee e4 bd 83 68 84 3d 6b 5a 2c 3e
       -0.046082865 -0.11178297 0.064652465 0.16831367
0001b0 17 32 5b bd 56 20 0a 3e 63 f2 35 3a 51 1e d8 bd
       -0.053514566 0.13488898 0.00069407205 -0.105526574
0001c0 7a d1 0b 3e d2 5b 52 be 4d d7 fb bb 38 d5 97 b9
       0.13654128 -0.20542839 -0.007685578 -0.00028959825
0001d0 6f 06 bc bc c9 83 cf 3d 6a d5 b1 3c b7 c6 af bd
       -0.022952287 0.10132558 0.021708209 -0.08582824
0001e0 9a 77 f2 bc 29 82 52 bd 5c 69 12 bd 11 45 4b 3d
       -0.029598046 -0.05139366 -0.03574501 0.049626414
0001f0 3a 75 1a be ee 1e 3a b9 4e 7d 03 3c 0c e1 0b 3d
       -0.15083781 -0.00017749864 0.00802548 0.03415017
000200 26 95 0b be 1f fc d0 3c 8e a7 7b 3d e6 82 8b bd
       -0.13631114 0.025510846 0.06143909 -0.06812076
000210 a3 4e b2 bc c9 e0 97 bd 9c c9 66 3b 21 da df bd
       -0.021766013 -0.07415921 0.0035215383 -0.10930277
000220 1c 13 22 be 07 0e 8f bd d2 3a 72 bd f8 1e 59 3d
       -0.15827602 -0.069850974 -0.059138127 0.05300805
000230 c5 a5 dd bc fd 90 5b 3d 7b f9 74 bd 9b c5 2c bd
       -0.027056584 0.05360507 -0.059808236 -0.04218064
000240 10 da 75 3d 71 29 c2 bd b3 5a 40 3c c6 de 3b 3d
       0.060022414 -0.094805606 0.011740374 0.04586675
000250 04 89 15 be ba 2a 3a be 02 42 dd 3d fe 96 c5 bd
       -0.14603049 -0.18180361 0.108036056 -0.0964794
000260 a2 7e e8 bd 72 85 d2 ba 28 8d 48 3d fc 31 fb 3d
       -0.11352278 -0.0016061498 0.048962742 0.12265393
000270 6f 1d 59 bd 20 46 1a 3d 41 7c 7d bc 68 93 6f 3d
       -0.053006586 0.037664533 -0.015471519 0.058490187
000280 14 da bb bd 5c 3e 26 3d 2c 0c 1c be 39 69 cf 3d
       -0.091724545 0.040586814 -0.15239018 0.101274915
000290 a5 f2 db 3d 8e 4e f1 bd 1b 30 e3 bd 8b 2c a0 bd
       0.1073964 -0.11782561 -0.1109316 -0.07820996
0002a0 f4 3d 52 3d d4 2f 7f 3d fd a7 39 bd ed bb 71 3d
       0.051328614 0.06230147 -0.04532622 0.05901711
0002b0 b5 49 d6 3c 3a 6b f8 bc 55 78 c5 bb 84 c4 8e bc
       0.026158193 -0.030324567 -0.0060263076 -0.01742769
0002c0 c6 e0 0f be 2d a5 07 be aa 6e b5 bd ee 02 41 bd
       -0.14050588 -0.13246603 -0.08858998 -0.047121935
0002d0 77 44 03 bd 8e e0 ab 3d e8 f4 24 bd 5d ce 77 3b
       -0.032047715 0.0839244 -0.040272623 0.003781221
0002e0 f0 0c e4 3c 2c 56 ae bd 01 c0 d7 3c d1 22 67 3c
       0.0278382 -0.0851253 0.026336672 0.014107422
0002f0 05 4c 0e be 85 3e 95 3c b7 2d 65 bd 68 8f b7 bd
       -0.13896187 0.018218288 -0.0559518 -0.089628994
000300 47 a3 24 bd 1d 95 c3 3d 5e 03 62 bc dd 3a cb bd
       -0.040194776 0.095499255 -0.013794748 -0.09923337
000310 61 28 36 bd 89 d6 67 bd 68 4d 5b 3d 5c 36 86 bc
       -0.044472102 -0.05660108 0.053540617 -0.016383342
000320 42 2b 1f bd 6b 7d de 3d 86 e6 0d 3d 0e 33 c9 bc
       -0.038859613 0.10863765 0.034643672 -0.024560478
000330 30 08 b0 bd 0d a0 e5 bd 02 fe 34 bd 34 1a 21 3c
       -0.08595312 -0.11212168 -0.044187553 0.0098329075
000340 2a fe b3 bd f5 a5 7e bd 98 cb 66 bd f5 d4 96 bd
       -0.08788712 -0.062169988 -0.056346506 -0.07364837
000350 2c a8 78 3c 4c b2 ca bc f8 8f 16 bd 62 92 83 3c
       0.015176814 -0.024743222 -0.036758393 0.016061012
000360 86 bd ba bd c5 0f aa ba 5c ac c8 bd cc 95 9e bc
       -0.0911818 -0.001297467 -0.097985 -0.019358538
000370 b3 9c 83 3c 31 16 15 3d 34 00 5a 3d cf b9 0e be
       0.016065931 0.036398116 0.05322285 -0.13938068
000380 74 c5 53 be b6 e1 f9 bd 0f 31 35 be ce ab ae 3b
       -0.20680791 -0.12201254 -0.17694496 0.0053305393
000390 72 7e 8d 3c 98 85 25 3c 42 62 85 3d 42 fe cc 3c
       0.017272208 0.010102652 0.06512882 0.025023583
0003a0 2a 81 41 3c 7c b4 59 3d c0 5b e1 bd 14 0a 46 bd
       0.01181058 0.05315064 -0.11003828 -0.048349455
0003b0 50 88 e0 3d 4f d8 cf bd 45 e3 1e 3d 00 1b f1 3b
       0.109634995 -0.101486795 0.03879096 0.007357955
0003c0 c4 0b 74 3d 8d 3e cd bd 1f 78 87 bd a6 72 e7 3d
       0.059581533 -0.10021696 -0.06614708 0.11301164
0003d0 99 b1 b8 bd 2c 0f e4 bc 7a c3 69 bc a3 08 82 bd
       -0.09018249 -0.027839266 -0.014267797 -0.063493036
0003e0 ad 5c 6b bd 02 61 27 be 99 22 b2 bd 48 78 63 bd
       -0.05746143 -0.163456 -0.08698005 -0.05553463
0003f0 2e 48 7c bc 5b 97 bc bd ae 48 04 bd 01 d5 73 3d
       -0.015398068 -0.09208556 -0.032295875 0.05952931

fc2.bias f4 [84]
000000 9b e5 2a 3d 1c 5b 4b 3e 42 9e 70 3e 99 fd 77 3e
       0.041722875 0.19858974 0.2349787 0.24217834
000010 79 e4 fb 3e ab 0a 72 3e 0f 65 47 bd e9 33 63 bd
       0.49197748 0.23636882 -0.04868036 -0.055469427
000020 ce 98 95 3e f4 21 ce 3e 4a c8 8b 3e df d6 a4 3e
       0.29218143 0.4026028 0.27301246 0.32195184
000030 fb 60 a7 3d 6b 72 fc 3d 36 fb 25 3d 17 19 5d 3d
       0.081727944 0.12326511 0.040522777 0.053979006
000040 06 75 ad bc b6 d4 59 3c ed 99 97 bc 7e a5 bd 3d
       -0.021173965 0.013295343 -0.018506015 0.09260081
000050 8c bd 6a 3e a8 e1 b7 3d 6c b6 a1 3e d7 51 22 bd
       0.22923869 0.089785874 0.3158449 -0.03962883
000060 b9 cd 9e 3e 90 02 b2 bd 6d 88 e2 3e 76 b6 7e 3e
       0.3101633 -0.08691895 0.4424471 0.24874291
000070 89 a3 9f 3e d4 03 bd bd d7 f9 9f 3e 9a 64 d4 bc
       0.31179455 -0.09229246 0.312453 -0.025926877
000080 17 12 b6 bd 9a 2b 08 bd 08 94 a3 bb 24 c5 c6 bb
       -0.08890169 -0.033244707 -0.004992012 -0.0060659815
000090 3e f3 b5 3d 3b 4e 8e 3d 34 d5 24 3d c7 fe 49 bd
       0.088842854 0.06948515 0.04024239 -0.04931524
0000a0 9d 7a b9 bd 17 d1 24 3d e7 c0 7d 3e e5 9b 5a 3e
       -0.0905659 0.040238466 0.24780618 0.21348532
0000b0 62 87 10 be 9b 37 e7 3d 27 f5 a4 3d e8 b3 c9 3d
       -0.14114144 0.11289903 0.080545716 0.098487675
0000c0 00 0c 00 be ae a5 ec bd a8 7e 33 3f ed 31 15 3e
       -0.12504578 -0.115550384 0.7011514 0.14569826
0000d0 06 75 ea bd 6e 55 b3 3e d9 5a 48 3e e4 15 63 bb
       -0.11448102 0.35026115 0.19565906 -0.00346505
0000e0 7b 57 4e 3e 2d 5c 03 bd a9 9f 13 3e b7 14 49 3d
       0.20150559 -0.032070328 0.14416374 0.04909202
0000f0 2a 8b 40 3e d8 79 13 bd e9 95 57 3e f8 7a 36 3d
       0.18803087 -0.03600487 0.2105328 0.044550866
000100 47 f2 06 3f ef 49 b4 3b bf f9 06 3e d3 71 91 3e
       0.52713436 0.0055019776 0.13181208 0.28407153
000110 11 0c b6 3e dd 18 c8 bd 2b d3 ce bd 9c 5a 37 3f
       0.3555608 -0.09770367 -0.10098871 0.71622634
000120 ab 8f eb 3d cf 99 16 be ce 37 9c 3e 9f c0 ec 3e
       0.11502012 -0.14707111 0.30511326 0.46240708
000130 77 aa 6a 3e 01 5c 5e 3e ea 6f 88 3e eb 25 d4 3e
       0.2291659 0.21714784 0.26647884 0.4143518
000140 b8 cb 2d 3e 16 69 96 3e 29 cd 0f be 49 0f 93 3e
       0.16972244 0.2937705 -0.14043106 0.287226

fc3.weight f4 [10, 84]
000000 45 71 78 3d c7 46 97 3e 50 c4 0f 3e 31 a1 57 3e
       0.060654897 0.29546186 0.14039731 0.21057583
000010 ad 76 23 be 91 33 25 be 5e 94 fd bc ff b5 51 be
       -0.1596324 -0.16132952 -0.030954536 -0.20479582
000020 51 03 28 3e e1 c9 91 3e e2 24 86 3e 40 27 ee 3d
       0.16407515 0.28474334 0.26200014 0.1162858
000030 30 f0 4a 3d 3c 2d b5 3d ee 49 ec 3d d2 01 c2 3c
       0.049545467 0.088465184 0.115375385 0.023682509
000040 a0 0e c9 bd fd e5 6c bb 01 05 af 3d e6 f7 49 3e
       -0.098172426 -0.0036147826 0.08545876 0.19723472
000050 f6 ad 0d be 2e 90 f6 bb 4b f6 44 3e 86 02 e9 3b
       -0.13835892 -0.007524512 0.19234578 0.0071108965
000060 3a 0e b1 3d 79 91 09 bd 91 d4 9b 3e 50 69 c2 3d
       0.086452916 -0.033586 0.30435613 0.09492743
000070 15 55 c3 bd 52 51 dd 3c 9f 9d 28 3e 03 3b 06 bd
       -0.095377125 0.027016316 0.16466378 -0.03277112
000080 aa 06 e0 bd 1e fb 30 3c 31 cd 08 3e 89 ae b2 3c
       -0.10938771 0.0108020585 0.13359524 0.02181174
000090 9c f9 8e bc 64 e4 7d 3c 92 1e ae 3d 6d af cb bd
       -0.017453007 0.015496347 0.085019246 -0.09945569
0000a0 44 3b db 3c 37 ad cf 3d 7c 3f 8d 3d c3 9f d4 3c
       0.026761658 0.1014046 0.06896874 0.025955087
0000b0 96 06 1f 3e f7 bb 2d 3e 06 9c b1 bd c7 19 70 bd
       0.15529856 0.16966234 -0.08672337 -0.058618333
0000c0 a2 cd 38 3e 8b 33 87 bd a3 8f 41 be a0 a3 a9 3d
       0.18047193 -0.06601628 -0.1890245 0.08283162
0000d0 3f 7c c5 3d d1 30 91 bd 2f e5 c6 bc 0b 75 11 3e
       0.09642839 -0.07089389 -0.024279205 0.14204805
0000e0 c0 40 2a be f7 62 34 be 41 b6 09 be c7 48 31 3d
       -0.16626263 -0.17615877 -0.1344843 0.043282297
0000f0 16 ec 7e bd 55 4f 2c bd 47 64 ae 3c 74 a0 80 3e
       -0.062236868 -0.042067844 0.02128805 0.25122416
000100 c2 53 8f be b6 68 c9 bd bc f2 eb 3d 81 b9 f7 bd
       -0.2799359 -0.09834425 0.11520907 -0.12095929
000110 32 e4 92 bd 35 70 0b 3d 90 2e 1e 3e 8d bf 36 be
       -0.07172431 0.034042556 0.1544745 -0.17846508
000120 50 5f 20 be 95 bf 9e 3c 91 bf 0f be d4 e9 a3 be
       -0.15661359 0.019378463 -0.1403792 -0.32014334
000130 c5 f6 82 bd 3b e3 97 bc f2 a9 e8 bd 35 8c fe 3d
       -0.06394724 -0.01854097 -0.113605395 0.12429086
000140 a5 e4 2a 3e 1b b9 94 3d 15 0e fc 3d 85 55 76 3e
       0.16688783 0.072618686 0.123073734 0.2405606
000150 2a cf ed 3d 73 4f 21 be 2c 04 e3 bc 44 6b ea bd
       0.11611779 -0.15752964 -0.02771195 -0.114462405
000160 5f 6c 0d be 1b c8 65 bd 8a 85 6b 3c 71 c1 ef 3d
       -0.13810872 -0.05609904 0.0143751 0.11706818
000170 8e d9 8f bd 35 fb 3a 3e 18 39 a1 3e b7 3c cd bd
       -0.07023917 0.1825989 0.31488872 -0.10021346
000180 64 f1 19 3b 3d 17 52 3c f7 fd 0c be 16 2e 22 bd
       0.0023489827 0.012822923 -0.13768755 -0.039594732
000190 26 dd 16 bd 0d be 72 3e 99 5f 02 be 00 21 97 3d
       -0.036831997 0.23705311 -0.1273178 0.07379341
0001a0 fd f9 42 be 49 90 3f 3c 1d 71 98 be a8 e5 b7 bc
       -0.19040675 0.011692115 -0.297738 -0.022448376
0001b0 ce b3 39 3e 84 24 cb bd 6c b2 49 be 66 85 8f be
       0.18134996 -0.09919074 -0.19696969 -0.28031462
0001c0 e1 6f fd 3d de f7 35 3d 29 e9 61 ba 92 4c c2 3d
       0.12374855 0.044425838 -0.00086178124 0.09487261
0001d0 ce b1 37 3e 2a cd c0 bc 9e ae 40 bd 74 c2 92 3e
       0.17938921 -0.02353533 -0.047041528 0.2866398
0001e0 62 a8 00 3e 50 a5 a2 bd 8b f1 06 3e 00 13 49 3d
       0.12564233 -0.07941687 0.13178079 0.049090385
0001f0 cc 3e 8b 3d 87 0b e9 bd 7d 0b 70 be 12 6c 6b be
       0.06799087 -0.11379152 -0.23441882 -0.22990444
000200 bc 89 c2 3b e0 cc 89 3e 04 0f 84 3d da 7f de bd
       0.0059368294 0.2691412 0.064481765 -0.108642295
000210 70 e9 93 bc 53 bb b4 bd 67 62 6c be a5 f2 7f bd
       -0.018055648 -0.08824792 -0.23084413 -0.062487263
000220 ff 4b d0 bd 64 d4 1b be d7 83 08 3e 8e d0 a7 bd
       -0.10170745 -0.1521774 0.13331543 -0.081940755
000230 54 c7 a0 be dc 9b 6c 3d c3 d0 91 be 9b 44 9d bd
       -0.31402075 0.057765827 -0.28479585 -0.07679101
000240 ce 89 dd bd e5 78 5d 3e 71 2c b3 3d 99 f0 40 be
       -0.108173 0.21628149 0.08748711 -0.1884178
000250 db 9b 07 3e 76 fe 9e 3b 7b c1 3b be 7c 9f 8a 3e
       0.13243048 0.0048521115 -0.18335526 0.27074802
000260 5c 30 3c be 04 97 d2 3d 63 81 8a 3e a5 bb b9 be
       -0.18377823 0.1028271 0.2705184 -0.36275974
000270 3e a4 c1 bd 5b 80 1b 3e 0f 13 46 be 13 17 f0 be
       -0.09455155 0.15185682 -0.19343208 -0.46892604
000280 74 59 ac bd d1 4a 60 3e ef 8e 07 bd a5 7b 25 3e
       -0.08415499 0.2190354 -0.033095296 0.16160448
000290 4e c5 7b 3e c9 af ae 3e 81 03 85 3d ac f4 9f 3e
       0.24586985 0.34118488 0.06494809 0.31241357
0002a0 08 d6 c3 bc b3 23 04 3e f3 2b 13 be 95 ca 72 3e
       -0.023905769 0.12904243 -0.14372234 0.23710091
0002b0 08 ed 50 3e 20 8b bc bd 3a b8 a7 bc d3 14 f3 bd
       0.2040292 -0.092062235 -0.020473588 -0.11869206
0002c0 16 c9 80 3e d4 6e 45 3e 88 ef 2a be eb 08 23 3e
       0.25153416 0.19280559 -0.16692936 0.1592137
0002d0 59 54 a1 3d 1c 6a f8 38 b9 bb 02 bd 64 b9 4f 3e
       0.07877416 0.00011845326 -0.031917308 0.20285565
0002e0 2d 0c 41 bb e7 14 ef 3d 98 5b 04 3e 23 36 ec bd
       -0.002945672 0.11673909 0.12925565 -0.11533763
0002f0 ec ec 85 3e 0d 8d 59 bd 91 99 29 3e f7 f8 96 3a
       0.2615732 -0.053113032 0.16562487 0.0011518289
000300 b8 34 0d be 13 ae 7d bd a9 27 5b 3e 3e 1f 53 3e
       -0.13789642 -0.06193359 0.21401848 0.20617387
000310 6d 95 55 be c3 61 8a 3d 35 52 30 3e 13 fe eb bd
       -0.20857783 0.06756928 0.1721886 -0.1152307
000320 a3 86 00 3e 1e c7 9a 3d bb a1 28 bc 22 42 2d bc
       0.1255136 0.0755751 -0.010292466 -0.010574849
000330 04 f5 c3 bd 70 aa d7 3b 4e 38 09 3e 10 9f 39 bd
       -0.095682174 0.006581597 0.13400385 -0.04531771
000340 2e e1 a3 3d 23 b1 00 3d 6c 18 6e bd 53 1e a0 3d
       0.08001934 0.03141893 -0.05812876 0.07818284
000350 38 ef a3 3d 43 26 97 3c 7a 71 63 bd 0f f5 21 3e
       0.08004612 0.018450862 -0.05552814 0.15816139
000360 12 87 f0 3d 03 68 7b 3d aa eb 9a 3e 9c 98 99 ba
       0.117445126 0.06137849 0.30257922 -0.0011718455
000370 84 68 9f 3b 81 f3 43 3e b6 54 92 bd 09 9b 02 3e
       0.004864754 0.19135858 -0.071450636 0.12754454
000380 2e 92 58 3d ff bb ad bd 81 b2 03 3d 84 2d cc bd
       0.052873783 -0.08483123 0.032152656 -0.09969619
000390 35 db 59 3e b0 ee 39 3d 00 ef 5d 3e 0f a9 6b bc
       0.21275027 0.045393646 0.21673203 -0.014383568
0003a0 ab 50 81 bc 36 e3 9d 3d 76 69 c1 3d 5f 50 8b 3c
       -0.015785536 0.07709353 0.09443943 0.017006097
0003b0 a8 1c 43 3e fc c4 a0 bd e7 7f 30 be b7 7f 1d 3e
       0.190539 -0.07850072 -0.17236291 0.1538075
0003c0 a6 0d f2 3d 21 8f 45 bd 76 84 4c 3d 27 a2 4e 3e
       0.118190095 -0.0482322 0.049931012 0.20179044
0003d0 1b 3c 40 3c 4b 5b d3 3d 5c 37 68 bd 72 b7 1a be
       0.01173308 0.10320147 -0.05669342 -0.15109041
0003e0 76 09 4f be 30 9c 03 be d8 8a 69 3e ad 68 1a be
       -0.20218453 -0.1285255 0.22806871 -0.15078993
0003f0 79 40 1d bd 9e ef 95 bd 65 7a 14 bc 82 09 92 3d
       -0.038391564 -0.07321094 -0.009062384 0.0713072

fc3.bias f4 [10]
000000 b8 91 b3 be 49 a6 35 bf 5b e9 e8 3b 32 7c ec 3e
       -0.35072112 -0.70956856 0.0071078963 0.46188504
000010 98 fa ef 3e 48 52 09 3c c1 31 86 3e 02 5d 35 be
       0.46870875 0.008381434 0.26209834 -0.17711261
000020 cb 88 70 3e 3d 12 86 be
       0.23489682 -0.2618579
